…
               CenterCrop(size=(224, 224))
               ToTensor()
               Normalize(mean=[0.5, 0.5, 0.5], std=[0.5, 0.5, 0.5])
           )
[19:03:45.829707] Sampler_train = <torch.utils.data.distributed.DistributedSampler object at 0x7fbb2a9521c0>
[19:03:47.382176] Load pre-trained checkpoint from: /DATA/khadga/mae_imagenet/mae_pretrain_vit_base.pth
[19:03:47.435597] _IncompatibleKeys(missing_keys=['head.weight', 'head.bias', 'fc_norm.weight', 'fc_norm.bias'], unexpected_keys=['norm.weight', 'norm.bias'])
[19:03:51.865654] Model = VisionTransformer(
  (patch_embed): PatchEmbed(
    (proj): Conv2d(3, 768, kernel_size=(16, 16), stride=(16, 16))
  )
  (pos_drop): Dropout(p=0.0, inplace=False)
  (blocks): ModuleList(
    (0): Block(
      (norm1): LayerNorm((768,), eps=1e-06, elementwise_affine=True)
      (attn): Attention(
        (qkv): Linear(in_features=768, out_features=2304, bias=True)
        (attn_drop): Dropout(p=0.0, inplace=False)
        (proj): Linear(in_features=768, out_features=768, bias=True)
        (proj_drop): Dropout(p=0.0, inplace=False)
      )
      (drop_path): Identity()
      (norm2): LayerNorm((768,), eps=1e-06, elementwise_affine=True)
      (mlp): Mlp(
        (fc1): Linear(in_features=768, out_features=3072, bias=True)
        (act): GELU(approximate='none')
        (fc2): Linear(in_features=3072, out_features=768, bias=True)
        (drop): Dropout(p=0.0, inplace=False)
      )
    )
    (1-11): 11 x Block(
      (norm1): LayerNorm((768,), eps=1e-06, elementwise_affine=True)
      (attn): Attention(
        (qkv): Linear(in_features=768, out_features=2304, bias=True)
        (attn_drop): Dropout(p=0.0, inplace=False)
        (proj): Linear(in_features=768, out_features=768, bias=True)
        (proj_drop): Dropout(p=0.0, inplace=False)
      )
      (drop_path): DropPath()
      (norm2): LayerNorm((768,), eps=1e-06, elementwise_affine=True)
      (mlp): Mlp(
        (fc1): Linear(in_features=768, out_features=3072, bias=True)
        (act): GELU(approximate='none')
        (fc2): Linear(in_features=3072, out_features=768, bias=True)
        (drop): Dropout(p=0.0, inplace=False)
      )
    )
  )
  (head): Linear(in_features=768, out_features=8, bias=True)
  (fc_norm): LayerNorm((768,), eps=1e-06, elementwise_affine=True)
)
[19:03:51.865690] number of params (M): 85.80
[19:03:51.865712] base lr: 5.00e-04
[19:03:51.865717] actual lr: 1.25e-04
[19:03:51.865721] accumulate grad iterations: 1
[19:03:51.865725] effective batch size: 64
[19:03:51.867076] criterion = LabelSmoothingCrossEntropy()
[19:03:51.867094] Start training for 50 epochs
[19:03:51.868282] log_dir: ./output_dir
…
